…
.0","0.0","0.0","0.0","0.0","0.0","0.0","0.0","0.0","0.0","0.0","0.0","0.0","0.0","0.0","0.0","0.0","0.0","0.0","0.0","0.0","0.0","0.0","0.0","0.0","0.0","0.0","0.0","0.0","0.0","0.0","0.0","0.0","0.0","0.0","0.0","0.0","0.0","0.0","0.0","0.0","0.0","0.0","0.0","0.0","0.0","0.0","0.0","0.0","0.0","0.0","0.0","22128.0","41938.0","61815.0","82510.0","103061.0","123415.0"],"short":[]}}
{"index":"train_val_test","0":"total"}
{"index":"Global_policy_net","0":{"long":"Global_actor(\n  (Net): Sequential(\n    (0): LSTM(7, 64, batch_first=True, bidirectional=True)\n  )\n  (Linear): Sequential(\n    (0): Linear(in_features=128, out_features=64, bias=True)\n    (1): ReLU()\n    (2): Linear(in_features=64, out_features=32, bias=True)\n    (3): ReLU()\n    (4): Linear(in_features=32, out_features=3, bias=True)\n  )\n)"}}
{"index":"Global_value_net","0":{"long":"Global_critic(\n  (Net): Sequential(\n    (0): LSTM(7, 64, batch_first=True, bidirectional=True)\n  )\n  (Linear): Sequential(\n    (0): Linear(in_features=128, out_features=64, bias=True)\n    (1): ReLU()\n    (2): Linear(in_features=64, out_features=32, bias=True)\n    (3): ReLU()\n    (4): Linear(in_features=32, out_features=1, bias=True)\n  )\n)"}}
{"index":"agent_data","0":{"long":"PPO(\n  (Global_actor): Global_actor(\n    (Net): Sequential(\n      (0): LSTM(7, 64, batch_first=True, bidirectional=True)\n    )\n    (Linear): Sequential(\n      (0): Linear(in_features=128, out_features=64, bias=True)\n      (1): ReLU()\n      (2): Linear(in_features=64, out_features=32, bias=True)\n      (3): ReLU()\n      (4): Linear(in_features=32, out_features=3, bias=True)\n    )\n  )\n  (Global_critic): Global_critic(\n    (Net): Sequential(\n      (0): LSTM(7, 64, batch_first=True, bidirectional=True)\n    )\n    (Linear): Sequential(\n      (0): Linear(in_features=128, out_features=64, bias=True)\n      (1): ReLU()\n      (2): Linear(in_features=64, out_features=32, bias=True)\n      (3): ReLU()\n      (4): Linear(in_features=32, out_features=1, bias=True)\n    )\n  )\n)"}}
{"index":"long_price_data","0":[[… "index":"long_scale_input","0":[… "index":"long_date_data","0":"2021-04-29 14:33:00"}
{"index":"short_price_data","0":[[… "index":"short_scale_input","0":[… "index":"short_date_data","0":"2021-04-29 14:33:00"}
{"index":"input_dim","0":"7"}
{"index":"agent","0":"PPO(\n  (Global_actor): Global_actor(\n    (Net): Sequential(\n      (0): LSTM(7, 64, batch_first=True, bidirectional=True)\n    )\n    (Linear): Sequential(\n      (0): Linear(in_features=128, out_features=64, bias=True)\n      (1): ReLU()\n      (2): Linear(in_features=64, out_features=32, bias=True)\n      (3): ReLU()\n      (4): Linear(in_features=32, out_features=3, bias=True)\n    )\n  )\n  (Global_critic): Global_critic(\n    (Net): Sequential(\n      (0): LSTM(7, 64, batch_first=True, bidirectional=True)\n    )\n    (Linear): Sequential(\n      (0): Linear(in_features=128, out_features=64, bias=True)\n      (1): ReLU()\n      (2): Linear(in_features=64, out_features=32, bias=True)\n      (3): ReLU()\n      (4): Linear(in_features=32, out_features=1, bias=True)\n    )\n  )\n)"}
{"index":"decide_action","0":"<bound method PPO.SC_decide_action of PPO(\n  (Global_actor): Global_actor(\n    (Net): Sequential(\n      (0): LSTM(7, 64, batch_first=True, bidirectional=True)\n    )\n    (Linear): Sequential(\n      (0): Linear(in_features=128, out_features=64, bias=True)\n      (1): ReLU()\n      (2): Linear(in_features=64, out_features=32, bias=True)\n      (3): ReLU()\n      (4): Linear(in_features=32, out_features=3, bias=True)\n    )\n  )\n  (Global_critic): Global_critic(\n    (Net): Sequential(\n      (0): LSTM(7, 64, batch_first=True, bidirectional=True)\n    )\n    (Linear): Sequential(\n      (0): Linear(in_features=128, out_features=64, bias=True)\n      (1): ReLU()\n      (2): Linear(in_features=64, out_features=32, bias=True)\n      (3): ReLU()\n      (4): Linear(in_features=32, out_features=1, bias=True)\n    )\n  )\n)>"}
{"index":"discrete_step","0":"<bound method Env.SC_discrete_step of PPO(\n  (Global_actor): Global_actor(\n    (Net): Sequential(\n      (0): LSTM(7, 64, batch_first=True, bidirectional=True)\n    )\n    (Linear): Sequential(\n      (0): Linear(in_features=128, out_features=64, bias=True)\n      (1): ReLU()\n      (2): Linear(in_features=64, out_features=32, bias=True)\n      (3): ReLU()\n      (4): Linear(in_features=32, out_features=3, bias=True)\n    )\n  )\n  (Global_critic): Global_critic(\n    (Net): Sequential(\n      (0): LSTM(7, 64, batch_first=True, bidirectional=True)\n    )\n    (Linear): Sequential(\n      (0): Linear(in_features=128, out_features=64, bias=True)\n      (1): ReLU()\n      (2): Linear(in_features=64, out_features=32, bias=True)\n      (3): ReLU()\n      (4): Linear(in_features=32, out_features=1, bias=True)\n    )\n  )\n)>"}
{"index":"Global_lr","0":"3e-05"}
{"index":"past_stock","0":"103061.0"}
{"index":"past_cash","0":[6961879.5]}
